{"format": "graph-model", "generatedBy": "2.3.0", "convertedBy": "TensorFlow.js Converter v2.3.0", "userDefinedMetadata": {"signature": {"inputs": {"input_1:0": {"name": "input_1:0", "dtype": "DT_FLOAT", "tensorShape": {"dim": [{"size": "-1"}, {"size": "64"}, {"size": "64"}, {"size": "1"}]}}}, "outputs": {"Identity:0": {"name": "Identity:0", "dtype": "DT_FLOAT", "tensorShape": {"dim": [{"size": "-1"}, {"size": "340"}]}}}}}, "modelTopology": {"node": [{"name": "StatefulPartitionedCall/mobilenet_1.00_64/conv1_pad/Pad/paddings", "op": "Const", "attr": {"value": {"tensor": {"dtype": "DT_INT32", "tensorShape": {"dim": [{"size": "4"}, {"size": "2"}]}}}, "dtype": {"type": "DT_INT32"}}}, {"name": "StatefulPartitionedCall/mobilenet_1.00_64/conv_pad_2/Pad/paddings", "op": "Const", "attr": {"value": {"tensor": {"dtype": "DT_INT32", "tensorShape": {"dim": [{"size": "4"}, {"size": "2"}]}}}, "dtype": {"type": "DT_INT32"}}}, {"name": "StatefulPartitionedCall/mobilenet_1.00_64/conv_pad_4/Pad/paddings", "op": "Const", "attr": {"value": {"tensor": {"dtype": "DT_INT32", "tensorShape": {"dim": [{"size": "4"}, {"size": "2"}]}}}, "dtype": {"type": "DT_INT32"}}}, {"name": "StatefulPartitionedCall/mobilenet_1.00_64/conv_pad_6/Pad/paddings", "op": "Const", "attr": {"value": {"tensor": {"dtype": "DT_INT32", "tensorShape": {"dim": [{"size": "4"}, {"size": "2"}]}}}, "dtype": {"type": "DT_INT32"}}}, {"name": "StatefulPartitionedCall/mobilenet_1.00_64/conv_pad_12/Pad/paddings", "op": "Const", "attr": {"value": {"tensor": {"dtype": "DT_INT32", "tensorShape": {"dim": [{"size": "4"}, {"size": "2"}]}}}, "dtype": {"type": "DT_INT32"}}}, {"name": "StatefulPartitionedCall/mobilenet_1.00_64/global_average_pooling2d/Mean/reduction_indices", "op": "Const", "attr": {"value": {"tensor": {"dtype": "DT_INT32", "tensorShape": {"dim": [{"size": "2"}]}}}, "dtype": {"type": "DT_INT32"}}}, {"name": "StatefulPartitionedCall/mobilenet_1.00_64/reshape_1/strided_slice/stack", "op": "Const", "attr": {"value": {"tensor": {"dtype": "DT_INT32", "tensorShape": {"dim": [{"size": "1"}]}}}, "dtype": {"type": "DT_INT32"}}}, {"name": "StatefulPartitionedCall/mobilenet_1.00_64/reshape_1/strided_slice/stack_1", "op": "Const", "attr": {"dtype": {"type": "DT_INT32"}, "value": {"tensor": {"dtype": "DT_INT32", "tensorShape": {"dim": [{"size": "1"}]}}}}}, {"name": "StatefulPartitionedCall/mobilenet_1.00_64/reshape_1/strided_slice/stack_2", "op": "Const", "attr": {"value": {"tensor": {"dtype": "DT_INT32", "tensorShape": {"dim": [{"size": "1"}]}}}, "dtype": {"type": "DT_INT32"}}}, {"name": "StatefulPartitionedCall/mobilenet_1.00_64/reshape_1/Reshape/shape/1", "op": "Const", "attr": {"value": {"tensor": {"dtype": "DT_INT32", "tensorShape": {}}}, "dtype": {"type": "DT_INT32"}}}, {"name": "StatefulPartitionedCall/mobilenet_1.00_64/reshape_1/Reshape/shape/2", "op": "Const", "attr": {"value": {"tensor": {"dtype": "DT_INT32", "tensorShape": {}}}, "dtype": {"type": "DT_INT32"}}}, {"name": "StatefulPartitionedCall/mobilenet_1.00_64/reshape_1/Reshape/shape/3", "op": "Const", "attr": {"value": {"tensor": {"dtype": "DT_INT32", "tensorShape": {}}}, "dtype": {"type": "DT_INT32"}}}, {"name": "unknown_134", "op": "Const", "attr": {"value": {"tensor": {"dtype": "DT_FLOAT", "tensorShape": {"dim": [{"size": "1"}, {"size": "1"}, {"size": "1024"}, {"size": "340"}]}}}, "dtype": {"type": "DT_FLOAT"}}}, {"name": "unknown_135", "op": "Const", "attr": {"value": {"tensor": {"dtype": "DT_FLOAT", "tensorShape": {"dim": [{"size": "340"}]}}}, "dtype": {"type": "DT_FLOAT"}}}, {"name": "StatefulPartitionedCall/mobilenet_1.00_64/reshape_2/strided_slice/stack", "op": "Const", "attr": {"value": {"tensor": {"dtype": "DT_INT32", "tensorShape": {"dim": [{"size": "1"}]}}}, "dtype": {"type": "DT_INT32"}}}, {"name": "StatefulPartitionedCall/mobilenet_1.00_64/reshape_2/strided_slice/stack_1", "op": "Const", "attr": {"value": {"tensor": {"dtype": "DT_INT32", "tensorShape": {"dim": [{"size": "1"}]}}}, "dtype": {"type": "DT_INT32"}}}, {"name": "StatefulPartitionedCall/mobilenet_1.00_64/reshape_2/strided_slice/stack_2", "op": "Const", "attr": {"dtype": {"type": "DT_INT32"}, "value": {"tensor": {"dtype": "DT_INT32", "tensorShape": {"dim": [{"size": "1"}]}}}}}, {"name": "StatefulPartitionedCall/mobilenet_1.00_64/reshape_2/Reshape/shape/1", "op": "Const", "attr": {"value": {"tensor": {"dtype": "DT_INT32", "tensorShape": {}}}, "dtype": {"type": "DT_INT32"}}}, {"name": "input_1", "op": "Placeholder", "attr": {"shape": {"shape": {"dim": [{"size": "-1"}, {"size": "64"}, {"size": "64"}, {"size": "1"}]}}, "dtype": {"type": "DT_FLOAT"}}}, {"name": "StatefulPartitionedCall/mobilenet_1.00_64/conv1/Conv2D_weights", "op": "Const", "attr": {"value": {"tensor": {"dtype": "DT_FLOAT", "tensorShape": {"dim": [{"size": "3"}, {"size": "3"}, {"size": "1"}, {"size": "32"}]}}}, "dtype": {"type": "DT_FLOAT"}}}, {"name": "StatefulPartitionedCall/mobilenet_1.00_64/conv1/Conv2D_bn_offset", "op": "Const", "attr": {"value": {"tensor": {"dtype": "DT_FLOAT", "tensorShape": {"dim": [{"size": "32"}]}}}, "dtype": {"type": "DT_FLOAT"}}}, {"name": "StatefulPartitionedCall/mobilenet_1.00_64/conv_pw_12/Conv2D_weights", "op": "Const", "attr": {"value": {"tensor": {"dtype": "DT_FLOAT", "tensorShape": {"dim": [{"size": "1"}, {"size": "1"}, {"size": "512"}, {"size": "1024"}]}}}, "dtype": {"type": "DT_FLOAT"}}}, {"name": "StatefulPartitionedCall/mobilenet_1.00_64/conv_dw_1/depthwise_weights", "op": "Const", "attr": {"value": {"tensor": {"dtype": "DT_FLOAT", "tensorShape": {"dim": [{"size": "3"}, {"size": "3"}, {"size": "32"}, {"size": "1"}]}}}, "dtype": {"type": "DT_FLOAT"}}}, {"name": "StatefulPartitionedCall/mobilenet_1.00_64/conv_dw_1/depthwise_bn_offset", "op": "Const", "attr": {"value": {"tensor": {"dtype": "DT_FLOAT", "tensorShape": {"dim": [{"size": "32"}]}}}, "dtype": {"type": "DT_FLOAT"}}}, {"name": "StatefulPartitionedCall/mobilenet_1.00_64/conv_pw_1/Conv2D_weights", "op": "Const", "attr": {"value": {"tensor": {"dtype": "DT_FLOAT", "tensorShape": {"dim": [{"size": "1"}, {"size": "1"}, {"size": "32"}, {"size": "64"}]}}}, "dtype": {"type": "DT_FLOAT"}}}, {"name": "StatefulPartitionedCall/mobilenet_1.00_64/conv_pw_1/Conv2D_bn_offset", "op": "Const", "attr": {"value": {"tensor": {"dtype": "DT_FLOAT", "tensorShape": {"dim": [{"size": "64"}]}}}, "dtype": {"type": "DT_FLOAT"}}}, {"name": "StatefulPartitionedCall/mobilenet_1.00_64/conv_pw_12/Conv2D_bn_offset", "op": "Const", "attr": {"dtype": {"type": "DT_FLOAT"}, "value": {"tensor": {"dtype": "DT_FLOAT", "tensorShape": {"dim": [{"size": "1024"}]}}}}}, {"name": "StatefulPartitionedCall/mobilenet_1.00_64/conv_dw_2/depthwise_weights", "op": "Const", "attr": {"value": {"tensor": {"dtype": "DT_FLOAT", "tensorShape": {"dim": [{"size": "3"}, {"size": "3"}, {"size": "64"}, {"size": "1"}]}}}, "dtype": {"type": "DT_FLOAT"}}}, {"name": "StatefulPartitionedCall/mobilenet_1.00_64/conv_dw_2/depthwise_bn_offset", "op": "Const", "attr": {"value": {"tensor": {"dtype": "DT_FLOAT", "tensorShape": {"dim": [{"size": "64"}]}}}, "dtype": {"type": "DT_FLOAT"}}}, {"name": "StatefulPartitionedCall/mobilenet_1.00_64/conv_pw_2/Conv2D_weights", "op": "Const", "attr": {"value": {"tensor": {"dtype": "DT_FLOAT", "tensorShape": {"dim": [{"size": "1"}, {"size": "1"}, {"size": "64"}, {"size": "128"}]}}}, "dtype": {"type": "DT_FLOAT"}}}, {"name": "StatefulPartitionedCall/mobilenet_1.00_64/conv_pw_2/Conv2D_bn_offset", "op": "Const", "attr": {"value": {"tensor": {"dtype": "DT_FLOAT", "tensorShape": {"dim": [{"size": "128"}]}}}, "dtype": {"type": "DT_FLOAT"}}}, {"name": "StatefulPartitionedCall/mobilenet_1.00_64/conv_dw_3/depthwise_weights", "op": "Const", "attr": {"value": {"tensor": {"dtype": "DT_FLOAT", "tensorShape": {"dim": [{"size": "3"}, {"size": "3"}, {"size": "128"}, {"size": "1"}]}}}, "dtype": {"type": "DT_FLOAT"}}}, {"name": "StatefulPartitionedCall/mobilenet_1.00_64/conv_dw_3/depthwise_bn_offset", "op": "Const", "attr": {"value": {"tensor": {"dtype": "DT_FLOAT", "tensorShape": {"dim": [{"size": "128"}]}}}, "dtype": {"type": "DT_FLOAT"}}}, {"name": "StatefulPartitionedCall/mobilenet_1.00_64/conv_pw_3/Conv2D_weights", "op": "Const", "attr": {"dtype": {"type": "DT_FLOAT"}, "value": {"tensor": {"dtype": "DT_FLOAT", "tensorShape": {"dim": [{"size": "1"}, {"size": "1"}, {"size": "128"}, {"size": "128"}]}}}}}, {"name": "StatefulPartitionedCall/mobilenet_1.00_64/conv_dw_13/depthwise_weights", "op": "Const", "attr": {"value": {"tensor": {"dtype": "DT_FLOAT", "tensorShape": {"dim": [{"size": "3"}, {"size": "3"}, {"size": "1024"}, {"size": "1"}]}}}, "dtype": {"type": "DT_FLOAT"}}}, {"name": "StatefulPartitionedCall/mobilenet_1.00_64/conv_pw_3/Conv2D_bn_offset", "op": "Const", "attr": {"value": {"tensor": {"dtype": "DT_FLOAT", "tensorShape": {"dim": [{"size": "128"}]}}}, "dtype": {"type": "DT_FLOAT"}}}, {"name": "StatefulPartitionedCall/mobilenet_1.00_64/conv_dw_4/depthwise_weights", "op": "Const", "attr": {"value": {"tensor": {"dtype": "DT_FLOAT", "tensorShape": {"dim": [{"size": "3"}, {"size": "3"}, {"size": "128"}, {"size": "1"}]}}}, "dtype": {"type": "DT_FLOAT"}}}, {"name": "StatefulPartitionedCall/mobilenet_1.00_64/conv_dw_4/depthwise_bn_offset", "op": "Const", "attr": {"dtype": {"type": "DT_FLOAT"}, "value": {"tensor": {"dtype": "DT_FLOAT", "tensorShape": {"dim": [{"size": "128"}]}}}}}, {"name": "StatefulPartitionedCall/mobilenet_1.00_64/conv_pw_4/Conv2D_weights", "op": "Const", "attr": {"dtype": {"type": "DT_FLOAT"}, "value": {"tensor": {"dtype": "DT_FLOAT", "tensorShape": {"dim": [{"size": "1"}, {"size": "1"}, {"size": "128"}, {"size": "256"}]}}}}}, {"name": "StatefulPartitionedCall/mobilenet_1.00_64/conv_dw_13/depthwise_bn_offset", "op": "Const", "attr": {"value": {"tensor": {"dtype": "DT_FLOAT", "tensorShape": {"dim": [{"size": "1024"}]}}}, "dtype": {"type": "DT_FLOAT"}}}, {"name": "StatefulPartitionedCall/mobilenet_1.00_64/conv_pw_4/Conv2D_bn_offset", "op": "Const", "attr": {"value": {"tensor": {"dtype": "DT_FLOAT", "tensorShape": {"dim": [{"size": "256"}]}}}, "dtype": {"type": "DT_FLOAT"}}}, {"name": "StatefulPartitionedCall/mobilenet_1.00_64/conv_dw_5/depthwise_weights", "op": "Const", "attr": {"value": {"tensor": {"dtype": "DT_FLOAT", "tensorShape": {"dim": [{"size": "3"}, {"size": "3"}, {"size": "256"}, {"size": "1"}]}}}, "dtype": {"type": "DT_FLOAT"}}}, {"name": "StatefulPartitionedCall/mobilenet_1.00_64/conv_dw_5/depthwise_bn_offset", "op": "Const", "attr": {"value": {"tensor": {"dtype": "DT_FLOAT", "tensorShape": {"dim": [{"size": "256"}]}}}, "dtype": {"type": "DT_FLOAT"}}}, {"name": "StatefulPartitionedCall/mobilenet_1.00_64/conv_pw_5/Conv2D_weights", "op": "Const", "attr": {"value": {"tensor": {"dtype": "DT_FLOAT", "tensorShape": {"dim": [{"size": "1"}, {"size": "1"}, {"size": "256"}, {"size": "256"}]}}}, "dtype": {"type": "DT_FLOAT"}}}, {"name": "StatefulPartitionedCall/mobilenet_1.00_64/conv_pw_5/Conv2D_bn_offset", "op": "Const", "attr": {"value": {"tensor": {"dtype": "DT_FLOAT", "tensorShape": {"dim": [{"size": "256"}]}}}, "dtype": {"type": "DT_FLOAT"}}}, {"name": "StatefulPartitionedCall/mobilenet_1.00_64/conv_pw_13/Conv2D_weights", "op": "Const", "attr": {"value": {"tensor": {"dtype": "DT_FLOAT", "tensorShape": {"dim": [{"size": "1"}, {"size": "1"}, {"size": "1024"}, {"size": "1024"}]}}}, "dtype": {"type": "DT_FLOAT"}}}, {"name": "StatefulPartitionedCall/mobilenet_1.00_64/conv_dw_6/depthwise_weights", "op": "Const", "attr": {"value": {"tensor": {"dtype": "DT_FLOAT", "tensorShape": {"dim": [{"size": "3"}, {"size": "3"}, {"size": "256"}, {"size": "1"}]}}}, "dtype": {"type": "DT_FLOAT"}}}, {"name": "StatefulPartitionedCall/mobilenet_1.00_64/conv_dw_6/depthwise_bn_offset", "op": "Const", "attr": {"dtype": {"type": "DT_FLOAT"}, "value": {"tensor": {"dtype": "DT_FLOAT", "tensorShape": {"dim": [{"size": "256"}]}}}}}, {"name": "StatefulPartitionedCall/mobilenet_1.00_64/conv_pw_6/Conv2D_weights", "op": "Const", "attr": {"value": {"tensor": {"dtype": "DT_FLOAT", "tensorShape": {"dim": [{"size": "1"}, {"size": "1"}, {"size": "256"}, {"size": "512"}]}}}, "dtype": {"type": "DT_FLOAT"}}}, {"name": "StatefulPartitionedCall/mobilenet_1.00_64/conv_pw_6/Conv2D_bn_offset", "op": "Const", "attr": {"dtype": {"type": "DT_FLOAT"}, "value": {"tensor": {"dtype": "DT_FLOAT", "tensorShape": {"dim": [{"size": "512"}]}}}}}, {"name": "StatefulPartitionedCall/mobilenet_1.00_64/conv_pw_13/Conv2D_bn_offset", "op": "Const", "attr": {"value": {"tensor": {"dtype": "DT_FLOAT", "tensorShape": {"dim": [{"size": "1024"}]}}}, "dtype": {"type": "DT_FLOAT"}}}, {"name": "StatefulPartitionedCall/mobilenet_1.00_64/conv_dw_7/depthwise_weights", "op": "Const", "attr": {"value": {"tensor": {"dtype": "DT_FLOAT", "tensorShape": {"dim": [{"size": "3"}, {"size": "3"}, {"size": "512"}, {"size": "1"}]}}}, "dtype": {"type": "DT_FLOAT"}}}, {"name": "StatefulPartitionedCall/mobilenet_1.00_64/conv_dw_7/depthwise_bn_offset", "op": "Const", "attr": {"value": {"tensor": {"dtype": "DT_FLOAT", "tensorShape": {"dim": [{"size": "512"}]}}}, "dtype": {"type": "DT_FLOAT"}}}, {"name": "StatefulPartitionedCall/mobilenet_1.00_64/conv_pw_7/Conv2D_weights", "op": "Const", "attr": {"value": {"tensor": {"dtype": "DT_FLOAT", "tensorShape": {"dim": [{"size": "1"}, {"size": "1"}, {"size": "512"}, {"size": "512"}]}}}, "dtype": {"type": "DT_FLOAT"}}}, {"name": "StatefulPartitionedCall/mobilenet_1.00_64/conv_pw_7/Conv2D_bn_offset", "op": "Const", "attr": {"value": {"tensor": {"dtype": "DT_FLOAT", "tensorShape": {"dim": [{"size": "512"}]}}}, "dtype": {"type": "DT_FLOAT"}}}, {"name": "StatefulPartitionedCall/mobilenet_1.00_64/conv_dw_8/depthwise_weights", "op": "Const", "attr": {"value": {"tensor": {"dtype": "DT_FLOAT", "tensorShape": {"dim": [{"size": "3"}, {"size": "3"}, {"size": "512"}, {"size": "1"}]}}}, "dtype": {"type": "DT_FLOAT"}}}, {"name": "StatefulPartitionedCall/mobilenet_1.00_64/conv_dw_8/depthwise_bn_offset", "op": "Const", "attr": {"value": {"tensor": {"dtype": "DT_FLOAT", "tensorShape": {"dim": [{"size": "512"}]}}}, "dtype": {"type": "DT_FLOAT"}}}, {"name": "StatefulPartitionedCall/mobilenet_1.00_64/conv_pw_8/Conv2D_weights", "op": "Const", "attr": {"value": {"tensor": {"dtype": "DT_FLOAT", "tensorShape": {"dim": [{"size": "1"}, {"size": "1"}, {"size": "512"}, {"size": "512"}]}}}, "dtype": {"type": "DT_FLOAT"}}}, {"name": "StatefulPartitionedCall/mobilenet_1.00_64/conv_pw_8/Conv2D_bn_offset", "op": "Const", "attr": {"value": {"tensor": {"dtype": "DT_FLOAT", "tensorShape": {"dim": [{"size": "512"}]}}}, "dtype": {"type": "DT_FLOAT"}}}, {"name": "StatefulPartitionedCall/mobilenet_1.00_64/conv_dw_9/depthwise_weights", "op": "Const", "attr": {"value": {"tensor": {"dtype": "DT_FLOAT", "tensorShape": {"dim": [{"size": "3"}, {"size": "3"}, {"size": "512"}, {"size": "1"}]}}}, "dtype": {"type": "DT_FLOAT"}}}, {"name": "StatefulPartitionedCall/mobilenet_1.00_64/conv_dw_9/depthwise_bn_offset", "op": "Const", "attr": {"dtype": {"type": "DT_FLOAT"}, "value": {"tensor": {"dtype": "DT_FLOAT", "tensorShape": {"dim": [{"size": "512"}]}}}}}, {"name": "StatefulPartitionedCall/mobilenet_1.00_64/conv_pw_9/Conv2D_weights", "op": "Const", "attr": {"value": {"tensor": {"dtype": "DT_FLOAT", "tensorShape": {"dim": [{"size": "1"}, {"size": "1"}, {"size": "512"}, {"size": "512"}]}}}, "dtype": {"type": "DT_FLOAT"}}}, {"name": "StatefulPartitionedCall/mobilenet_1.00_64/conv_pw_9/Conv2D_bn_offset", "op": "Const", "attr": {"value": {"tensor": {"dtype": "DT_FLOAT", "tensorShape": {"dim": [{"size": "512"}]}}}, "dtype": {"type": "DT_FLOAT"}}}, {"name": "StatefulPartitionedCall/mobilenet_1.00_64/conv_dw_10/depthwise_weights", "op": "Const", "attr": {"value": {"tensor": {"dtype": "DT_FLOAT", "tensorShape": {"dim": [{"size": "3"}, {"size": "3"}, {"size": "512"}, {"size": "1"}]}}}, "dtype": {"type": "DT_FLOAT"}}}, {"name": "StatefulPartitionedCall/mobilenet_1.00_64/conv_dw_10/depthwise_bn_offset", "op": "Const", "attr": {"value": {"tensor": {"dtype": "DT_FLOAT", "tensorShape": {"dim": [{"size": "512"}]}}}, "dtype": {"type": "DT_FLOAT"}}}, {"name": "StatefulPartitionedCall/mobilenet_1.00_64/conv_pw_10/Conv2D_weights", "op": "Const", "attr": {"value": {"tensor": {"dtype": "DT_FLOAT", "tensorShape": {"dim": [{"size": "1"}, {"size": "1"}, {"size": "512"}, {"size": "512"}]}}}, "dtype": {"type": "DT_FLOAT"}}}, {"name": "StatefulPartitionedCall/mobilenet_1.00_64/conv_pw_10/Conv2D_bn_offset", "op": "Const", "attr": {"value": {"tensor": {"dtype": "DT_FLOAT", "tensorShape": {"dim": [{"size": "512"}]}}}, "dtype": {"type": "DT_FLOAT"}}}, {"name": "StatefulPartitionedCall/mobilenet_1.00_64/conv_dw_11/depthwise_weights", "op": "Const", "attr": {"value": {"tensor": {"dtype": "DT_FLOAT", "tensorShape": {"dim": [{"size": "3"}, {"size": "3"}, {"size": "512"}, {"size": "1"}]}}}, "dtype": {"type": "DT_FLOAT"}}}, {"name": "StatefulPartitionedCall/mobilenet_1.00_64/conv_dw_11/depthwise_bn_offset", "op": "Const", "attr": {"dtype": {"type": "DT_FLOAT"}, "value": {"tensor": {"dtype": "DT_FLOAT", "tensorShape": {"dim": [{"size": "512"}]}}}}}, {"name": "StatefulPartitionedCall/mobilenet_1.00_64/conv_pw_11/Conv2D_weights", "op": "Const", "attr": {"value": {"tensor": {"dtype": "DT_FLOAT", "tensorShape": {"dim": [{"size": "1"}, {"size": "1"}, {"size": "512"}, {"size": "512"}]}}}, "dtype": {"type": "DT_FLOAT"}}}, {"name": "StatefulPartitionedCall/mobilenet_1.00_64/conv_pw_11/Conv2D_bn_offset", "op": "Const", "attr": {"value": {"tensor": {"dtype": "DT_FLOAT", "tensorShape": {"dim": [{"size": "512"}]}}}, "dtype": {"type": "DT_FLOAT"}}}, {"name": "StatefulPartitionedCall/mobilenet_1.00_64/conv_dw_12/depthwise_weights", "op": "Const", "attr": {"value": {"tensor": {"dtype": "DT_FLOAT", "tensorShape": {"dim": [{"size": "3"}, {"size": "3"}, {"size": "512"}, {"size": "1"}]}}}, "dtype": {"type": "DT_FLOAT"}}}, {"name": "StatefulPartitionedCall/mobilenet_1.00_64/conv_dw_12/depthwise_bn_offset", "op": "Const", "attr": {"value": {"tensor": {"dtype": "DT_FLOAT", "tensorShape": {"dim": [{"size": "512"}]}}}, "dtype": {"type": "DT_FLOAT"}}}, {"name": "StatefulPartitionedCall/mobilenet_1.00_64/conv1_pad/Pad", "op": "Pad", "input": ["input_1", "StatefulPartitionedCall/mobilenet_1.00_64/conv1_pad/Pad/paddings"], "attr": {"Tpaddings": {"type": "DT_INT32"}, "T": {"type": "DT_FLOAT"}}}, {"name": "StatefulPartitionedCall/mobilenet_1.00_64/conv1_relu/Relu6", "op": "_FusedConv2D", "input": ["StatefulPartitionedCall/mobilenet_1.00_64/conv1_pad/Pad", "StatefulPartitionedCall/mobilenet_1.00_64/conv1/Conv2D_weights", "StatefulPartitionedCall/mobilenet_1.00_64/conv1/Conv2D_bn_offset"], "device": "/device:CPU:0", "attr": {"strides": {"list": {"i": ["1", "2", "2", "1"]}}, "data_format": {"s": "TkhXQw=="}, "use_cudnn_on_gpu": {"b": true}, "explicit_paddings": {"list": {}}, "num_args": {"i": "1"}, "epsilon": {"f": 0.0}, "padding": {"s": "VkFMSUQ="}, "fused_ops": {"list": {"s": ["Qmlhc0FkZA==", "UmVsdTY="]}}, "dilations": {"list": {"i": ["1", "1", "1", "1"]}}, "T": {"type": "DT_FLOAT"}}}, {"name": "StatefulPartitionedCall/mobilenet_1.00_64/conv_dw_1/depthwise", "op": "FusedDepthwiseConv2dNative", "input": ["StatefulPartitionedCall/mobilenet_1.00_64/conv1_relu/Relu6", "StatefulPartitionedCall/mobilenet_1.00_64/conv_dw_1/depthwise_weights", "StatefulPartitionedCall/mobilenet_1.00_64/conv_dw_1/depthwise_bn_offset"], "attr": {"data_format": {"s": "TkhXQw=="}, "strides": {"list": {"i": ["1", "1", "1", "1"]}}, "explicit_paddings": {"list": {}}, "num_args": {"i": "1"}, "padding": {"s": "U0FNRQ=="}, "fused_ops": {"list": {"s": ["Qmlhc0FkZA==", "UmVsdTY="]}}, "dilations": {"list": {"i": ["1", "1", "1", "1"]}}, "T": {"type": "DT_FLOAT"}}}, {"name": "StatefulPartitionedCall/mobilenet_1.00_64/conv_pw_1_relu/Relu6", "op": "_FusedConv2D", "input": ["StatefulPartitionedCall/mobilenet_1.00_64/conv_dw_1/depthwise", "StatefulPartitionedCall/mobilenet_1.00_64/conv_pw_1/Conv2D_weights", "StatefulPartitionedCall/mobilenet_1.00_64/conv_pw_1/Conv2D_bn_offset"], "device": "/device:CPU:0", "attr": {"strides": {"list": {"i": ["1", "1", "1", "1"]}}, "data_format": {"s": "TkhXQw=="}, "explicit_paddings": {"list": {}}, "use_cudnn_on_gpu": {"b": true}, "num_args": {"i": "1"}, "epsilon": {"f": 0.0}, "padding": {"s": "U0FNRQ=="}, "fused_ops": {"list": {"s": ["Qmlhc0FkZA==", "UmVsdTY="]}}, "dilations": {"list": {"i": ["1", "1", "1", "1"]}}, "T": {"type": "DT_FLOAT"}}}, {"name": "StatefulPartitionedCall/mobilenet_1.00_64/conv_pad_2/Pad", "op": "Pad", "input": ["StatefulPartitionedCall/mobilenet_1.00_64/conv_pw_1_relu/Relu6", "StatefulPartitionedCall/mobilenet_1.00_64/conv_pad_2/Pad/paddings"], "attr": {"T": {"type": "DT_FLOAT"}, "Tpaddings": {"type": "DT_INT32"}}}, {"name": "StatefulPartitionedCall/mobilenet_1.00_64/conv_dw_2/depthwise", "op": "FusedDepthwiseConv2dNative", "input": ["StatefulPartitionedCall/mobilenet_1.00_64/conv_pad_2/Pad", "StatefulPartitionedCall/mobilenet_1.00_64/conv_dw_2/depthwise_weights", "StatefulPartitionedCall/mobilenet_1.00_64/conv_dw_2/depthwise_bn_offset"], "attr": {"explicit_paddings": {"list": {}}, "num_args": {"i": "1"}, "padding": {"s": "VkFMSUQ="}, "fused_ops": {"list": {"s": ["Qmlhc0FkZA==", "UmVsdTY="]}}, "dilations": {"list": {"i": ["1", "1", "1", "1"]}}, "T": {"type": "DT_FLOAT"}, "strides": {"list": {"i": ["1", "2", "2", "1"]}}, "data_format": {"s": "TkhXQw=="}}}, {"name": "StatefulPartitionedCall/mobilenet_1.00_64/conv_pw_2_relu/Relu6", "op": "_FusedConv2D", "input": ["StatefulPartitionedCall/mobilenet_1.00_64/conv_dw_2/depthwise", "StatefulPartitionedCall/mobilenet_1.00_64/conv_pw_2/Conv2D_weights", "StatefulPartitionedCall/mobilenet_1.00_64/conv_pw_2/Conv2D_bn_offset"], "device": "/device:CPU:0", "attr": {"num_args": {"i": "1"}, "epsilon": {"f": 0.0}, "padding": {"s": "U0FNRQ=="}, "fused_ops": {"list": {"s": ["Qmlhc0FkZA==", "UmVsdTY="]}}, "dilations": {"list": {"i": ["1", "1", "1", "1"]}}, "T": {"type": "DT_FLOAT"}, "data_format": {"s": "TkhXQw=="}, "strides": {"list": {"i": ["1", "1", "1", "1"]}}, "explicit_paddings": {"list": {}}, "use_cudnn_on_gpu": {"b": true}}}, {"name": "StatefulPartitionedCall/mobilenet_1.00_64/conv_dw_3/depthwise", "op": "FusedDepthwiseConv2dNative", "input": ["StatefulPartitionedCall/mobilenet_1.00_64/conv_pw_2_relu/Relu6", "StatefulPartitionedCall/mobilenet_1.00_64/conv_dw_3/depthwise_weights", "StatefulPartitionedCall/mobilenet_1.00_64/conv_dw_3/depthwise_bn_offset"], "attr": {"dilations": {"list": {"i": ["1", "1", "1", "1"]}}, "T": {"type": "DT_FLOAT"}, "data_format": {"s": "TkhXQw=="}, "strides": {"list": {"i": ["1", "1", "1", "1"]}}, "explicit_paddings": {"list": {}}, "num_args": {"i": "1"}, "padding": {"s": "U0FNRQ=="}, "fused_ops": {"list": {"s": ["Qmlhc0FkZA==", "UmVsdTY="]}}}}, {"name": "StatefulPartitionedCall/mobilenet_1.00_64/conv_pw_3_relu/Relu6", "op": "_FusedConv2D", "input": ["StatefulPartitionedCall/mobilenet_1.00_64/conv_dw_3/depthwise", "StatefulPartitionedCall/mobilenet_1.00_64/conv_pw_3/Conv2D_weights", "StatefulPartitionedCall/mobilenet_1.00_64/conv_pw_3/Conv2D_bn_offset"], "device": "/device:CPU:0", "attr": {"dilations": {"list": {"i": ["1", "1", "1", "1"]}}, "T": {"type": "DT_FLOAT"}, "data_format": {"s": "TkhXQw=="}, "strides": {"list": {"i": ["1", "1", "1", "1"]}}, "explicit_paddings": {"list": {}}, "use_cudnn_on_gpu": {"b": true}, "num_args": {"i": "1"}, "epsilon": {"f": 0.0}, "padding": {"s": "U0FNRQ=="}, "fused_ops": {"list": {"s": ["Qmlhc0FkZA==", "UmVsdTY="]}}}}, {"name": "StatefulPartitionedCall/mobilenet_1.00_64/conv_pad_4/Pad", "op": "Pad", "input": ["StatefulPartitionedCall/mobilenet_1.00_64/conv_pw_3_relu/Relu6", "StatefulPartitionedCall/mobilenet_1.00_64/conv_pad_4/Pad/paddings"], "attr": {"T": {"type": "DT_FLOAT"}, "Tpaddings": {"type": "DT_INT32"}}}, {"name": "StatefulPartitionedCall/mobilenet_1.00_64/conv_dw_4/depthwise", "op": "FusedDepthwiseConv2dNative", "input": ["StatefulPartitionedCall/mobilenet_1.00_64/conv_pad_4/Pad", "StatefulPartitionedCall/mobilenet_1.00_64/conv_dw_4/depthwise_weights", "StatefulPartitionedCall/mobilenet_1.00_64/conv_dw_4/depthwise_bn_offset"], "attr": {"dilations": {"list": {"i": ["1", "1", "1", "1"]}}, "T": {"type": "DT_FLOAT"}, "strides": {"list": {"i": ["1", "2", "2", "1"]}}, "data_format": {"s": "TkhXQw=="}, "explicit_paddings": {"list": {}}, "num_args": {"i": "1"}, "padding": {"s": "VkFMSUQ="}, "fused_ops": {"list": {"s": ["Qmlhc0FkZA==", "UmVsdTY="]}}}}, {"name": "StatefulPartitionedCall/mobilenet_1.00_64/conv_pw_4_relu/Relu6", "op": "_FusedConv2D", "input": ["StatefulPartitionedCall/mobilenet_1.00_64/conv_dw_4/depthwise", "StatefulPartitionedCall/mobilenet_1.00_64/conv_pw_4/Conv2D_weights", "StatefulPartitionedCall/mobilenet_1.00_64/conv_pw_4/Conv2D_bn_offset"], "device": "/device:CPU:0", "attr": {"dilations": {"list": {"i": ["1", "1", "1", "1"]}}, "T": {"type": "DT_FLOAT"}, "strides": {"list": {"i": ["1", "1", "1", "1"]}}, "data_format": {"s": "TkhXQw=="}, "use_cudnn_on_gpu": {"b": true}, "explicit_paddings": {"list": {}}, "num_args": {"i": "1"}, "epsilon": {"f": 0.0}, "padding": {"s": "U0FNRQ=="}, "fused_ops": {"list": {"s": ["Qmlhc0FkZA==", "UmVsdTY="]}}}}, {"name": "StatefulPartitionedCall/mobilenet_1.00_64/conv_dw_5/depthwise", "op": "FusedDepthwiseConv2dNative", "input": ["StatefulPartitionedCall/mobilenet_1.00_64/conv_pw_4_relu/Relu6", "StatefulPartitionedCall/mobilenet_1.00_64/conv_dw_5/depthwise_weights", "StatefulPartitionedCall/mobilenet_1.00_64/conv_dw_5/depthwise_bn_offset"], "attr": {"dilations": {"list": {"i": ["1", "1", "1", "1"]}}, "T": {"type": "DT_FLOAT"}, "strides": {"list": {"i": ["1", "1", "1", "1"]}}, "data_format": {"s": "TkhXQw=="}, "explicit_paddings": {"list": {}}, "num_args": {"i": "1"}, "padding": {"s": "U0FNRQ=="}, "fused_ops": {"list": {"s": ["Qmlhc0FkZA==", "UmVsdTY="]}}}}, {"name": "StatefulPartitionedCall/mobilenet_1.00_64/conv_pw_5_relu/Relu6", "op": "_FusedConv2D", "input": ["StatefulPartitionedCall/mobilenet_1.00_64/conv_dw_5/depthwise", "StatefulPartitionedCall/mobilenet_1.00_64/conv_pw_5/Conv2D_weights", "StatefulPartitionedCall/mobilenet_1.00_64/conv_pw_5/Conv2D_bn_offset"], "device": "/device:CPU:0", "attr": {"dilations": {"list": {"i": ["1", "1", "1", "1"]}}, "T": {"type": "DT_FLOAT"}, "data_format": {"s": "TkhXQw=="}, "strides": {"list": {"i": ["1", "1", "1", "1"]}}, "use_cudnn_on_gpu": {"b": true}, "explicit_paddings": {"list": {}}, "num_args": {"i": "1"}, "epsilon": {"f": 0.0}, "padding": {"s": "U0FNRQ=="}, "fused_ops": {"list": {"s": ["Qmlhc0FkZA==", "UmVsdTY="]}}}}, {"name": "StatefulPartitionedCall/mobilenet_1.00_64/conv_pad_6/Pad", "op": "Pad", "input": ["StatefulPartitionedCall/mobilenet_1.00_64/conv_pw_5_relu/Relu6", "StatefulPartitionedCall/mobilenet_1.00_64/conv_pad_6/Pad/paddings"], "attr": {"Tpaddings": {"type": "DT_INT32"}, "T": {"type": "DT_FLOAT"}}}, {"name": "StatefulPartitionedCall/mobilenet_1.00_64/conv_dw_6/depthwise", "op": "FusedDepthwiseConv2dNative", "input": ["StatefulPartitionedCall/mobilenet_1.00_64/conv_pad_6/Pad", "StatefulPartitionedCall/mobilenet_1.00_64/conv_dw_6/depthwise_weights", "StatefulPartitionedCall/mobilenet_1.00_64/conv_dw_6/depthwise_bn_offset"], "attr": {"dilations": {"list": {"i": ["1", "1", "1", "1"]}}, "T": {"type": "DT_FLOAT"}, "strides": {"list": {"i": ["1", "2", "2", "1"]}}, "data_format": {"s": "TkhXQw=="}, "explicit_paddings": {"list": {}}, "num_args": {"i": "1"}, "padding": {"s": "VkFMSUQ="}, "fused_ops": {"list": {"s": ["Qmlhc0FkZA==", "UmVsdTY="]}}}}, {"name": "StatefulPartitionedCall/mobilenet_1.00_64/conv_pw_6_relu/Relu6", "op": "_FusedConv2D", "input": ["StatefulPartitionedCall/mobilenet_1.00_64/conv_dw_6/depthwise", "StatefulPartitionedCall/mobilenet_1.00_64/conv_pw_6/Conv2D_weights", "StatefulPartitionedCall/mobilenet_1.00_64/conv_pw_6/Conv2D_bn_offset"], "device": "/device:CPU:0", "attr": {"padding": {"s": "U0FNRQ=="}, "fused_ops": {"list": {"s": ["Qmlhc0FkZA==", "UmVsdTY="]}}, "dilations": {"list": {"i": ["1", "1", "1", "1"]}}, "T": {"type": "DT_FLOAT"}, "strides": {"list": {"i": ["1", "1", "1", "1"]}}, "data_format": {"s": "TkhXQw=="}, "explicit_paddings": {"list": {}}, "use_cudnn_on_gpu": {"b": true}, "num_args": {"i": "1"}, "epsilon": {"f": 0.0}}}, {"name": "StatefulPartitionedCall/mobilenet_1.00_64/conv_dw_7/depthwise", "op": "FusedDepthwiseConv2dNative", "input": ["StatefulPartitionedCall/mobilenet_1.00_64/conv_pw_6_relu/Relu6", "StatefulPartitionedCall/mobilenet_1.00_64/conv_dw_7/depthwise_weights", "StatefulPartitionedCall/mobilenet_1.00_64/conv_dw_7/depthwise_bn_offset"], "attr": {"strides": {"list": {"i": ["1", "1", "1", "1"]}}, "data_format": {"s": "TkhXQw=="}, "explicit_paddings": {"list": {}}, "num_args": {"i": "1"}, "padding": {"s": "U0FNRQ=="}, "fused_ops": {"list": {"s": ["Qmlhc0FkZA==", "UmVsdTY="]}}, "dilations": {"list": {"i": ["1", "1", "1", "1"]}}, "T": {"type": "DT_FLOAT"}}}, {"name": "StatefulPartitionedCall/mobilenet_1.00_64/conv_pw_7_relu/Relu6", "op": "_FusedConv2D", "input": ["StatefulPartitionedCall/mobilenet_1.00_64/conv_dw_7/depthwise", "StatefulPartitionedCall/mobilenet_1.00_64/conv_pw_7/Conv2D_weights", "StatefulPartitionedCall/mobilenet_1.00_64/conv_pw_7/Conv2D_bn_offset"], "device": "/device:CPU:0", "attr": {"dilations": {"list": {"i": ["1", "1", "1", "1"]}}, "T": {"type": "DT_FLOAT"}, "data_format": {"s": "TkhXQw=="}, "strides": {"list": {"i": ["1", "1", "1", "1"]}}, "use_cudnn_on_gpu": {"b": true}, "explicit_paddings": {"list": {}}, "num_args": {"i": "1"}, "epsilon": {"f": 0.0}, "padding": {"s": "U0FNRQ=="}, "fused_ops": {"list": {"s": ["Qmlhc0FkZA==", "UmVsdTY="]}}}}, {"name": "StatefulPartitionedCall/mobilenet_1.00_64/conv_dw_8/depthwise", "op": "FusedDepthwiseConv2dNative", "input": ["StatefulPartitionedCall/mobilenet_1.00_64/conv_pw_7_relu/Relu6", "StatefulPartitionedCall/mobilenet_1.00_64/conv_dw_8/depthwise_weights", "StatefulPartitionedCall/mobilenet_1.00_64/conv_dw_8/depthwise_bn_offset"], "attr": {"dilations": {"list": {"i": ["1", "1", "1", "1"]}}, "T": {"type": "DT_FLOAT"}, "strides": {"list": {"i": ["1", "1", "1", "1"]}}, "data_format": {"s": "TkhXQw=="}, "explicit_paddings": {"list": {}}, "num_args": {"i": "1"}, "padding": {"s": "U0FNRQ=="}, "fused_ops": {"list": {"s": ["Qmlhc0FkZA==", "UmVsdTY="]}}}}, {"name": "StatefulPartitionedCall/mobilenet_1.00_64/conv_pw_8_relu/Relu6", "op": "_FusedConv2D", "input": ["StatefulPartitionedCall/mobilenet_1.00_64/conv_dw_8/depthwise", "StatefulPartitionedCall/mobilenet_1.00_64/conv_pw_8/Conv2D_weights", "StatefulPartitionedCall/mobilenet_1.00_64/conv_pw_8/Conv2D_bn_offset"], "device": "/device:CPU:0", "attr": {"strides": {"list": {"i": ["1", "1", "1", "1"]}}, "data_format": {"s": "TkhXQw=="}, "use_cudnn_on_gpu": {"b": true}, "explicit_paddings": {"list": {}}, "num_args": {"i": "1"}, "epsilon": {"f": 0.0}, "padding": {"s": "U0FNRQ=="}, "fused_ops": {"list": {"s": ["Qmlhc0FkZA==", "UmVsdTY="]}}, "dilations": {"list": {"i": ["1", "1", "1", "1"]}}, "T": {"type": "DT_FLOAT"}}}, {"name": "StatefulPartitionedCall/mobilenet_1.00_64/conv_dw_9/depthwise", "op": "FusedDepthwiseConv2dNative", "input": ["StatefulPartitionedCall/mobilenet_1.00_64/conv_pw_8_relu/Relu6", "StatefulPartitionedCall/mobilenet_1.00_64/conv_dw_9/depthwise_weights", "StatefulPartitionedCall/mobilenet_1.00_64/conv_dw_9/depthwise_bn_offset"], "attr": {"strides": {"list": {"i": ["1", "1", "1", "1"]}}, "data_format": {"s": "TkhXQw=="}, "explicit_paddings": {"list": {}}, "num_args": {"i": "1"}, "padding": {"s": "U0FNRQ=="}, "fused_ops": {"list": {"s": ["Qmlhc0FkZA==", "UmVsdTY="]}}, "dilations": {"list": {"i": ["1", "1", "1", "1"]}}, "T": {"type": "DT_FLOAT"}}}, {"name": "StatefulPartitionedCall/mobilenet_1.00_64/conv_pw_9_relu/Relu6", "op": "_FusedConv2D", "input": ["StatefulPartitionedCall/mobilenet_1.00_64/conv_dw_9/depthwise", "StatefulPartitionedCall/mobilenet_1.00_64/conv_pw_9/Conv2D_weights", "StatefulPartitionedCall/mobilenet_1.00_64/conv_pw_9/Conv2D_bn_offset"], "device": "/device:CPU:0", "attr": {"dilations": {"list": {"i": ["1", "1", "1", "1"]}}, "T": {"type": "DT_FLOAT"}, "strides": {"list": {"i": ["1", "1", "1", "1"]}}, "data_format": {"s": "TkhXQw=="}, "explicit_paddings": {"list": {}}, "use_cudnn_on_gpu": {"b": true}, "num_args": {"i": "1"}, "epsilon": {"f": 0.0}, "padding": {"s": "U0FNRQ=="}, "fused_ops": {"list": {"s": ["Qmlhc0FkZA==", "UmVsdTY="]}}}}, {"name": "StatefulPartitionedCall/mobilenet_1.00_64/conv_dw_10/depthwise", "op": "FusedDepthwiseConv2dNative", "input": ["StatefulPartitionedCall/mobilenet_1.00_64/conv_pw_9_relu/Relu6", "StatefulPartitionedCall/mobilenet_1.00_64/conv_dw_10/depthwise_weights", "StatefulPartitionedCall/mobilenet_1.00_64/conv_dw_10/depthwise_bn_offset"], "attr": {"dilations": {"list": {"i": ["1", "1", "1", "1"]}}, "T": {"type": "DT_FLOAT"}, "strides": {"list": {"i": ["1", "1", "1", "1"]}}, "data_format": {"s": "TkhXQw=="}, "explicit_paddings": {"list": {}}, "num_args": {"i": "1"}, "padding": {"s": "U0FNRQ=="}, "fused_ops": {"list": {"s": ["Qmlhc0FkZA==", "UmVsdTY="]}}}}, {"name": "StatefulPartitionedCall/mobilenet_1.00_64/conv_pw_10_relu/Relu6", "op": "_FusedConv2D", "input": ["StatefulPartitionedCall/mobilenet_1.00_64/conv_dw_10/depthwise", "StatefulPartitionedCall/mobilenet_1.00_64/conv_pw_10/Conv2D_weights", "StatefulPartitionedCall/mobilenet_1.00_64/conv_pw_10/Conv2D_bn_offset"], "device": "/device:CPU:0", "attr": {"epsilon": {"f": 0.0}, "padding": {"s": "U0FNRQ=="}, "fused_ops": {"list": {"s": ["Qmlhc0FkZA==", "UmVsdTY="]}}, "dilations": {"list": {"i": ["1", "1", "1", "1"]}}, "T": {"type": "DT_FLOAT"}, "data_format": {"s": "TkhXQw=="}, "strides": {"list": {"i": ["1", "1", "1", "1"]}}, "explicit_paddings": {"list": {}}, "use_cudnn_on_gpu": {"b": true}, "num_args": {"i": "1"}}}, {"name": "StatefulPartitionedCall/mobilenet_1.00_64/conv_dw_11/depthwise", "op": "FusedDepthwiseConv2dNative", "input": ["StatefulPartitionedCall/mobilenet_1.00_64/conv_pw_10_relu/Relu6", "StatefulPartitionedCall/mobilenet_1.00_64/conv_dw_11/depthwise_weights", "StatefulPartitionedCall/mobilenet_1.00_64/conv_dw_11/depthwise_bn_offset"], "attr": {"dilations": {"list": {"i": ["1", "1", "1", "1"]}}, "T": {"type": "DT_FLOAT"}, "data_format": {"s": "TkhXQw=="}, "strides": {"list": {"i": ["1", "1", "1", "1"]}}, "explicit_paddings": {"list": {}}, "num_args": {"i": "1"}, "padding": {"s": "U0FNRQ=="}, "fused_ops": {"list": {"s": ["Qmlhc0FkZA==", "UmVsdTY="]}}}}, {"name": "StatefulPartitionedCall/mobilenet_1.00_64/conv_pw_11_relu/Relu6", "op": "_FusedConv2D", "input": ["StatefulPartitionedCall/mobilenet_1.00_64/conv_dw_11/depthwise", "StatefulPartitionedCall/mobilenet_1.00_64/conv_pw_11/Conv2D_weights", "StatefulPartitionedCall/mobilenet_1.00_64/conv_pw_11/Conv2D_bn_offset"], "device": "/device:CPU:0", "attr": {"strides": {"list": {"i": ["1", "1", "1", "1"]}}, "data_format": {"s": "TkhXQw=="}, "explicit_paddings": {"list": {}}, "use_cudnn_on_gpu": {"b": true}, "num_args": {"i": "1"}, "epsilon": {"f": 0.0}, "padding": {"s": "U0FNRQ=="}, "fused_ops": {"list": {"s": ["Qmlhc0FkZA==", "UmVsdTY="]}}, "dilations": {"list": {"i": ["1", "1", "1", "1"]}}, "T": {"type": "DT_FLOAT"}}}, {"name": "StatefulPartitionedCall/mobilenet_1.00_64/conv_pad_12/Pad", "op": "Pad", "input": ["StatefulPartitionedCall/mobilenet_1.00_64/conv_pw_11_relu/Relu6", "StatefulPartitionedCall/mobilenet_1.00_64/conv_pad_12/Pad/paddings"], "attr": {"T": {"type": "DT_FLOAT"}, "Tpaddings": {"type": "DT_INT32"}}}, {"name": "StatefulPartitionedCall/mobilenet_1.00_64/conv_dw_12/depthwise", "op": "FusedDepthwiseConv2dNative", "input": ["StatefulPartitionedCall/mobilenet_1.00_64/conv_pad_12/Pad", "StatefulPartitionedCall/mobilenet_1.00_64/conv_dw_12/depthwise_weights", "StatefulPartitionedCall/mobilenet_1.00_64/conv_dw_12/depthwise_bn_offset"], "attr": {"dilations": {"list": {"i": ["1", "1", "1", "1"]}}, "T": {"type": "DT_FLOAT"}, "data_format": {"s": "TkhXQw=="}, "strides": {"list": {"i": ["1", "2", "2", "1"]}}, "explicit_paddings": {"list": {}}, "num_args": {"i": "1"}, "padding": {"s": "VkFMSUQ="}, "fused_ops": {"list": {"s": ["Qmlhc0FkZA==", "UmVsdTY="]}}}}, {"name": "StatefulPartitionedCall/mobilenet_1.00_64/conv_pw_12_relu/Relu6", "op": "_FusedConv2D", "input": ["StatefulPartitionedCall/mobilenet_1.00_64/conv_dw_12/depthwise", "StatefulPartitionedCall/mobilenet_1.00_64/conv_pw_12/Conv2D_weights", "StatefulPartitionedCall/mobilenet_1.00_64/conv_pw_12/Conv2D_bn_offset"], "device": "/device:CPU:0", "attr": {"strides": {"list": {"i": ["1", "1", "1", "1"]}}, "data_format": {"s": "TkhXQw=="}, "use_cudnn_on_gpu": {"b": true}, "explicit_paddings": {"list": {}}, "num_args": {"i": "1"}, "epsilon": {"f": 0.0}, "padding": {"s": "U0FNRQ=="}, "fused_ops": {"list": {"s": ["Qmlhc0FkZA==", "UmVsdTY="]}}, "dilations": {"list": {"i": ["1", "1", "1", "1"]}}, "T": {"type": "DT_FLOAT"}}}, {"name": "StatefulPartitionedCall/mobilenet_1.00_64/conv_dw_13/depthwise", "op": "FusedDepthwiseConv2dNative", "input": ["StatefulPartitionedCall/mobilenet_1.00_64/conv_pw_12_relu/Relu6", "StatefulPartitionedCall/mobilenet_1.00_64/conv_dw_13/depthwise_weights", "StatefulPartitionedCall/mobilenet_1.00_64/conv_dw_13/depthwise_bn_offset"], "attr": {"dilations": {"list": {"i": ["1", "1", "1", "1"]}}, "T": {"type": "DT_FLOAT"}, "strides": {"list": {"i": ["1", "1", "1", "1"]}}, "data_format": {"s": "TkhXQw=="}, "explicit_paddings": {"list": {}}, "num_args": {"i": "1"}, "padding": {"s": "U0FNRQ=="}, "fused_ops": {"list": {"s": ["Qmlhc0FkZA==", "UmVsdTY="]}}}}, {"name": "StatefulPartitionedCall/mobilenet_1.00_64/conv_pw_13_relu/Relu6", "op": "_FusedConv2D", "input": ["StatefulPartitionedCall/mobilenet_1.00_64/conv_dw_13/depthwise", "StatefulPartitionedCall/mobilenet_1.00_64/conv_pw_13/Conv2D_weights", "StatefulPartitionedCall/mobilenet_1.00_64/conv_pw_13/Conv2D_bn_offset"], "device": "/device:CPU:0", "attr": {"fused_ops": {"list": {"s": ["Qmlhc0FkZA==", "UmVsdTY="]}}, "dilations": {"list": {"i": ["1", "1", "1", "1"]}}, "T": {"type": "DT_FLOAT"}, "data_format": {"s": "TkhXQw=="}, "strides": {"list": {"i": ["1", "1", "1", "1"]}}, "use_cudnn_on_gpu": {"b": true}, "explicit_paddings": {"list": {}}, "num_args": {"i": "1"}, "epsilon": {"f": 0.0}, "padding": {"s": "U0FNRQ=="}}}, {"name": "StatefulPartitionedCall/mobilenet_1.00_64/global_average_pooling2d/Mean", "op": "Mean", "input": ["StatefulPartitionedCall/mobilenet_1.00_64/conv_pw_13_relu/Relu6", "StatefulPartitionedCall/mobilenet_1.00_64/global_average_pooling2d/Mean/reduction_indices"], "attr": {"T": {"type": "DT_FLOAT"}, "Tidx": {"type": "DT_INT32"}, "keep_dims": {"b": false}}}, {"name": "StatefulPartitionedCall/mobilenet_1.00_64/reshape_1/Shape", "op": "Shape", "input": ["StatefulPartitionedCall/mobilenet_1.00_64/global_average_pooling2d/Mean"], "attr": {"T": {"type": "DT_FLOAT"}, "out_type": {"type": "DT_INT32"}}}, {"name": "StatefulPartitionedCall/mobilenet_1.00_64/reshape_1/strided_slice", "op": "StridedSlice", "input": ["StatefulPartitionedCall/mobilenet_1.00_64/reshape_1/Shape", "StatefulPartitionedCall/mobilenet_1.00_64/reshape_1/strided_slice/stack", "StatefulPartitionedCall/mobilenet_1.00_64/reshape_1/strided_slice/stack_1", "StatefulPartitionedCall/mobilenet_1.00_64/reshape_1/strided_slice/stack_2"], "attr": {"shrink_axis_mask": {"i": "1"}, "begin_mask": {"i": "0"}, "ellipsis_mask": {"i": "0"}, "new_axis_mask": {"i": "0"}, "end_mask": {"i": "0"}, "T": {"type": "DT_INT32"}, "Index": {"type": "DT_INT32"}}}, {"name": "StatefulPartitionedCall/mobilenet_1.00_64/reshape_1/Reshape/shape", "op": "Pack", "input": ["StatefulPartitionedCall/mobilenet_1.00_64/reshape_1/strided_slice", "StatefulPartitionedCall/mobilenet_1.00_64/reshape_1/Reshape/shape/1", "StatefulPartitionedCall/mobilenet_1.00_64/reshape_1/Reshape/shape/2", "StatefulPartitionedCall/mobilenet_1.00_64/reshape_1/Reshape/shape/3"], "attr": {"T": {"type": "DT_INT32"}, "axis": {"i": "0"}, "N": {"i": "4"}}}, {"name": "StatefulPartitionedCall/mobilenet_1.00_64/reshape_1/Reshape", "op": "Reshape", "input": ["StatefulPartitionedCall/mobilenet_1.00_64/global_average_pooling2d/Mean", "StatefulPartitionedCall/mobilenet_1.00_64/reshape_1/Reshape/shape"], "attr": {"T": {"type": "DT_FLOAT"}, "Tshape": {"type": "DT_INT32"}}}, {"name": "StatefulPartitionedCall/mobilenet_1.00_64/conv_preds/BiasAdd", "op": "_FusedConv2D", "input": ["StatefulPartitionedCall/mobilenet_1.00_64/reshape_1/Reshape", "unknown_134", "unknown_135"], "device": "/device:CPU:0", "attr": {"dilations": {"list": {"i": ["1", "1", "1", "1"]}}, "T": {"type": "DT_FLOAT"}, "strides": {"list": {"i": ["1", "1", "1", "1"]}}, "data_format": {"s": "TkhXQw=="}, "explicit_paddings": {"list": {}}, "use_cudnn_on_gpu": {"b": true}, "num_args": {"i": "1"}, "epsilon": {"f": 0.0}, "padding": {"s": "U0FNRQ=="}, "fused_ops": {"list": {"s": ["Qmlhc0FkZA=="]}}}}, {"name": "StatefulPartitionedCall/mobilenet_1.00_64/reshape_2/Shape", "op": "Shape", "input": ["StatefulPartitionedCall/mobilenet_1.00_64/conv_preds/BiasAdd"], "attr": {"T": {"type": "DT_FLOAT"}, "out_type": {"type": "DT_INT32"}}}, {"name": "StatefulPartitionedCall/mobilenet_1.00_64/reshape_2/strided_slice", "op": "StridedSlice", "input": ["StatefulPartitionedCall/mobilenet_1.00_64/reshape_2/Shape", "StatefulPartitionedCall/mobilenet_1.00_64/reshape_2/strided_slice/stack", "StatefulPartitionedCall/mobilenet_1.00_64/reshape_2/strided_slice/stack_1", "StatefulPartitionedCall/mobilenet_1.00_64/reshape_2/strided_slice/stack_2"], "attr": {"Index": {"type": "DT_INT32"}, "T": {"type": "DT_INT32"}, "shrink_axis_mask": {"i": "1"}, "begin_mask": {"i": "0"}, "ellipsis_mask": {"i": "0"}, "new_axis_mask": {"i": "0"}, "end_mask": {"i": "0"}}}, {"name": "StatefulPartitionedCall/mobilenet_1.00_64/reshape_2/Reshape/shape", "op": "Pack", "input": ["StatefulPartitionedCall/mobilenet_1.00_64/reshape_2/strided_slice", "StatefulPartitionedCall/mobilenet_1.00_64/reshape_2/Reshape/shape/1"], "attr": {"T": {"type": "DT_INT32"}, "axis": {"i": "0"}, "N": {"i": "2"}}}, {"name": "StatefulPartitionedCall/mobilenet_1.00_64/reshape_2/Reshape", "op": "Reshape", "input": ["StatefulPartitionedCall/mobilenet_1.00_64/conv_preds/BiasAdd", "StatefulPartitionedCall/mobilenet_1.00_64/reshape_2/Reshape/shape"], "attr": {"T": {"type": "DT_FLOAT"}, "Tshape": {"type": "DT_INT32"}}}, {"name": "StatefulPartitionedCall/mobilenet_1.00_64/predictions/Softmax", "op": "Softmax", "input": ["StatefulPartitionedCall/mobilenet_1.00_64/reshape_2/Reshape"], "attr": {"T": {"type": "DT_FLOAT"}}}, {"name": "Identity", "op": "Identity", "input": ["StatefulPartitionedCall/mobilenet_1.00_64/predictions/Softmax"], "attr": {"T": {"type": "DT_FLOAT"}}}], "library": {}, "versions": {"producer": 440}}, "weightsManifest": [{"paths": ["group1-shard1of1.bin"], "weights": [{"name": "StatefulPartitionedCall/mobilenet_1.00_64/conv1_pad/Pad/paddings", "shape": [4, 2], "dtype": "int32"}, {"name": "StatefulPartitionedCall/mobilenet_1.00_64/conv_pad_2/Pad/paddings", "shape": [4, 2], "dtype": "int32"}, {"name": "StatefulPartitionedCall/mobilenet_1.00_64/conv_pad_4/Pad/paddings", "shape": [4, 2], "dtype": "int32"}, {"name": "StatefulPartitionedCall/mobilenet_1.00_64/conv_pad_6/Pad/paddings", "shape": [4, 2], "dtype": "int32"}, {"name": "StatefulPartitionedCall/mobilenet_1.00_64/conv_pad_12/Pad/paddings", "shape": [4, 2], "dtype": "int32"}, {"name": "StatefulPartitionedCall/mobilenet_1.00_64/global_average_pooling2d/Mean/reduction_indices", "shape": [2], "dtype": "int32"}, {"name": "StatefulPartitionedCall/mobilenet_1.00_64/reshape_1/strided_slice/stack", "shape": [1], "dtype": "int32"}, {"name": "StatefulPartitionedCall/mobilenet_1.00_64/reshape_1/strided_slice/stack_1", "shape": [1], "dtype": "int32"}, {"name": "StatefulPartitionedCall/mobilenet_1.00_64/reshape_1/strided_slice/stack_2", "shape": [1], "dtype": "int32"}, {"name": "StatefulPartitionedCall/mobilenet_1.00_64/reshape_1/Reshape/shape/1", "shape": [], "dtype": "int32"}, {"name": "StatefulPartitionedCall/mobilenet_1.00_64/reshape_1/Reshape/shape/2", "shape": [], "dtype": "int32"}, {"name": "StatefulPartitionedCall/mobilenet_1.00_64/reshape_1/Reshape/shape/3", "shape": [], "dtype": "int32"}, {"name": "unknown_134", "shape": [1, 1, 1024, 340], "dtype": "float32", "quantization": {"dtype": "uint8", "min": -1.7965108441371542, "scale": 0.014487990678525438, "original_dtype": "float32"}}, {"name": "unknown_135", "shape": [340], "dtype": "float32", "quantization": {"dtype": "uint8", "min": -0.27069584867533514, "scale": 0.0034265297300675335, "original_dtype": "float32"}}, {"name": "StatefulPartitionedCall/mobilenet_1.00_64/reshape_2/strided_slice/stack", "shape": [1], "dtype": "int32"}, {"name": "StatefulPartitionedCall/mobilenet_1.00_64/reshape_2/strided_slice/stack_1", "shape": [1], "dtype": "int32"}, {"name": "StatefulPartitionedCall/mobilenet_1.00_64/reshape_2/strided_slice/stack_2", "shape": [1], "dtype": "int32"}, {"name": "StatefulPartitionedCall/mobilenet_1.00_64/reshape_2/Reshape/shape/1", "shape": [], "dtype": "int32"}, {"name": "StatefulPartitionedCall/mobilenet_1.00_64/conv1/Conv2D_weights", "shape": [3, 3, 1, 32], "dtype": "float32", "quantization": {"dtype": "uint8", "min": -2.1192645171109366, "scale": 0.015469084066503188, "original_dtype": "float32"}}, {"name": "StatefulPartitionedCall/mobilenet_1.00_64/conv1/Conv2D_bn_offset", "shape": [32], "dtype": "float32", "quantization": {"dtype": "uint8", "min": -1.661326442045324, "scale": 0.0137299705954159, "original_dtype": "float32"}}, {"name": "StatefulPartitionedCall/mobilenet_1.00_64/conv_pw_12/Conv2D_weights", "shape": [1, 1, 512, 1024], "dtype": "float32", "quantization": {"dtype": "uint8", "min": -0.2831810287985147, "scale": 0.0020670148087482826, "original_dtype": "float32"}}, {"name": "StatefulPartitionedCall/mobilenet_1.00_64/conv_dw_1/depthwise_weights", "shape": [3, 3, 32, 1], "dtype": "float32", "quantization": {"dtype": "uint8", "min": -2.2495987349865483, "scale": 0.016184163561054305, "original_dtype": "float32"}}, {"name": "StatefulPartitionedCall/mobilenet_1.00_64/conv_dw_1/depthwise_bn_offset", "shape": [32], "dtype": "float32", "quantization": {"dtype": "uint8", "min": -1.470639809440164, "scale": 0.020713236752678367, "original_dtype": "float32"}}, {"name": "StatefulPartitionedCall/mobilenet_1.00_64/conv_pw_1/Conv2D_weights", "shape": [1, 1, 32, 64], "dtype": "float32", "quantization": {"dtype": "uint8", "min": -1.037846547014573, "scale": 0.011661197157467112, "original_dtype": "float32"}}, {"name": "StatefulPartitionedCall/mobilenet_1.00_64/conv_pw_1/Conv2D_bn_offset", "shape": [64], "dtype": "float32", "quantization": {"dtype": "uint8", "min": -1.3003751553741156, "scale": 0.011930047297010235, "original_dtype": "float32"}}, {"name": "StatefulPartitionedCall/mobilenet_1.00_64/conv_pw_12/Conv2D_bn_offset", "shape": [1024], "dtype": "float32", "quantization": {"dtype": "uint8", "min": -1.7928780537025601, "scale": 0.01723921205483231, "original_dtype": "float32"}}, {"name": "StatefulPartitionedCall/mobilenet_1.00_64/conv_dw_2/depthwise_weights", "shape": [3, 3, 64, 1], "dtype": "float32", "quantization": {"dtype": "uint8", "min": -2.130086263020833, "scale": 0.02505983838848039, "original_dtype": "float32"}}, {"name": "StatefulPartitionedCall/mobilenet_1.00_64/conv_dw_2/depthwise_bn_offset", "shape": [64], "dtype": "float32", "quantization": {"dtype": "uint8", "min": -1.4418112558477065, "scale": 0.019750839121201458, "original_dtype": "float32"}}, {"name": "StatefulPartitionedCall/mobilenet_1.00_64/conv_pw_2/Conv2D_weights", "shape": [1, 1, 64, 128], "dtype": "float32", "quantization": {"dtype": "uint8", "min": -0.795530216366637, "scale": 0.007232092876060336, "original_dtype": "float32"}}, {"name": "StatefulPartitionedCall/mobilenet_1.00_64/conv_pw_2/Conv2D_bn_offset", "shape": [128], "dtype": "float32", "quantization": {"dtype": "uint8", "min": -1.214295145109588, "scale": 0.01003549706702139, "original_dtype": "float32"}}, {"name": "StatefulPartitionedCall/mobilenet_1.00_64/conv_dw_3/depthwise_weights", "shape": [3, 3, 128, 1], "dtype": "float32", "quantization": {"dtype": "uint8", "min": -2.654164159999174, "scale": 0.02527775390475404, "original_dtype": "float32"}}, {"name": "StatefulPartitionedCall/mobilenet_1.00_64/conv_dw_3/depthwise_bn_offset", "shape": [128], "dtype": "float32", "quantization": {"dtype": "uint8", "min": -1.5180356783025404, "scale": 0.01686706309225045, "original_dtype": "float32"}}, {"name": "StatefulPartitionedCall/mobilenet_1.00_64/conv_pw_3/Conv2D_weights", "shape": [1, 1, 128, 128], "dtype": "float32", "quantization": {"dtype": "uint8", "min": -0.5121683183838339, "scale": 0.00562822327894323, "original_dtype": "float32"}}, {"name": "StatefulPartitionedCall/mobilenet_1.00_64/conv_dw_13/depthwise_weights", "shape": [3, 3, 1024, 1], "dtype": "float32", "quantization": {"dtype": "uint8", "min": -5.674440391390932, "scale": 0.044331565557741655, "original_dtype": "float32"}}, {"name": "StatefulPartitionedCall/mobilenet_1.00_64/conv_pw_3/Conv2D_bn_offset", "shape": [128], "dtype": "float32", "quantization": {"dtype": "uint8", "min": -1.064089258511861, "scale": 0.012518697158963072, "original_dtype": "float32"}}, {"name": "StatefulPartitionedCall/mobilenet_1.00_64/conv_dw_4/depthwise_weights", "shape": [3, 3, 128, 1], "dtype": "float32", "quantization": {"dtype": "uint8", "min": -1.4405608710120705, "scale": 0.014699600724612965, "original_dtype": "float32"}}, {"name": "StatefulPartitionedCall/mobilenet_1.00_64/conv_dw_4/depthwise_bn_offset", "shape": [128], "dtype": "float32", "quantization": {"dtype": "uint8", "min": -1.3157648572734757, "scale": 0.015299591363645067, "original_dtype": "float32"}}, {"name": "StatefulPartitionedCall/mobilenet_1.00_64/conv_pw_4/Conv2D_weights", "shape": [1, 1, 128, 256], "dtype": "float32", "quantization": {"dtype": "uint8", "min": -0.8829962506013758, "scale": 0.00754697650086646, "original_dtype": "float32"}}, {"name": "StatefulPartitionedCall/mobilenet_1.00_64/conv_dw_13/depthwise_bn_offset", "shape": [1024], "dtype": "float32", "quantization": {"dtype": "uint8", "min": -1.5412855092216942, "scale": 0.016396654353422278, "original_dtype": "float32"}}, {"name": "StatefulPartitionedCall/mobilenet_1.00_64/conv_pw_4/Conv2D_bn_offset", "shape": [256], "dtype": "float32", "quantization": {"dtype": "uint8", "min": -3.630717288746553, "scale": 0.02927997813505285, "original_dtype": "float32"}}, {"name": "StatefulPartitionedCall/mobilenet_1.00_64/conv_dw_5/depthwise_weights", "shape": [3, 3, 256, 1], "dtype": "float32", "quantization": {"dtype": "uint8", "min": -3.8515340169270833, "scale": 0.024532063802083334, "original_dtype": "float32"}}, {"name": "StatefulPartitionedCall/mobilenet_1.00_64/conv_dw_5/depthwise_bn_offset", "shape": [256], "dtype": "float32", "quantization": {"dtype": "uint8", "min": -1.15387510879367, "scale": 0.01390210974450205, "original_dtype": "float32"}}, {"name": "StatefulPartitionedCall/mobilenet_1.00_64/conv_pw_5/Conv2D_weights", "shape": [1, 1, 256, 256], "dtype": "float32", "quantization": {"dtype": "uint8", "min": -0.47670127667632756, "scale": 0.00390738751374039, "original_dtype": "float32"}}, {"name": "StatefulPartitionedCall/mobilenet_1.00_64/conv_pw_5/Conv2D_bn_offset", "shape": [256], "dtype": "float32", "quantization": {"dtype": "uint8", "min": -1.4750527405271343, "scale": 0.014320900393467324, "original_dtype": "float32"}}, {"name": "StatefulPartitionedCall/mobilenet_1.00_64/conv_pw_13/Conv2D_weights", "shape": [1, 1, 1024, 1024], "dtype": "float32", "quantization": {"dtype": "uint8", "min": -0.11710586194314208, "scale": 0.0010183118429838442, "original_dtype": "float32"}}, {"name": "StatefulPartitionedCall/mobilenet_1.00_64/conv_dw_6/depthwise_weights", "shape": [3, 3, 256, 1], "dtype": "float32", "quantization": {"dtype": "uint8", "min": -1.6820927339441638, "scale": 0.01617396859561696, "original_dtype": "float32"}}, {"name": "StatefulPartitionedCall/mobilenet_1.00_64/conv_dw_6/depthwise_bn_offset", "shape": [256], "dtype": "float32", "quantization": {"dtype": "uint8", "min": -1.230413269996643, "scale": 0.013824868202209472, "original_dtype": "float32"}}, {"name": "StatefulPartitionedCall/mobilenet_1.00_64/conv_pw_6/Conv2D_weights", "shape": [1, 1, 256, 512], "dtype": "float32", "quantization": {"dtype": "uint8", "min": -0.6153335600507025, "scale": 0.004243679724487604, "original_dtype": "float32"}}, {"name": "StatefulPartitionedCall/mobilenet_1.00_64/conv_pw_6/Conv2D_bn_offset", "shape": [512], "dtype": "float32", "quantization": {"dtype": "uint8", "min": -2.970823164547191, "scale": 0.022506236095054477, "original_dtype": "float32"}}, {"name": "StatefulPartitionedCall/mobilenet_1.00_64/conv_pw_13/Conv2D_bn_offset", "shape": [1024], "dtype": "float32", "quantization": {"dtype": "uint8", "min": -0.829713781674703, "scale": 0.006382413705190023, "original_dtype": "float32"}}, {"name": "StatefulPartitionedCall/mobilenet_1.00_64/conv_dw_7/depthwise_weights", "shape": [3, 3, 512, 1], "dtype": "float32", "quantization": {"dtype": "uint8", "min": -2.066978405971153, "scale": 0.021091616387460745, "original_dtype": "float32"}}, {"name": "StatefulPartitionedCall/mobilenet_1.00_64/conv_dw_7/depthwise_bn_offset", "shape": [512], "dtype": "float32", "quantization": {"dtype": "uint8", "min": -1.7075241733999813, "scale": 0.015522947030908922, "original_dtype": "float32"}}, {"name": "StatefulPartitionedCall/mobilenet_1.00_64/conv_pw_7/Conv2D_weights", "shape": [1, 1, 512, 512], "dtype": "float32", "quantization": {"dtype": "uint8", "min": -0.3968103415825788, "scale": 0.0031492884252585615, "original_dtype": "float32"}}, {"name": "StatefulPartitionedCall/mobilenet_1.00_64/conv_pw_7/Conv2D_bn_offset", "shape": [512], "dtype": "float32", "quantization": {"dtype": "uint8", "min": -1.3183877005296596, "scale": 0.015153881615283443, "original_dtype": "float32"}}, {"name": "StatefulPartitionedCall/mobilenet_1.00_64/conv_dw_8/depthwise_weights", "shape": [3, 3, 512, 1], "dtype": "float32", "quantization": {"dtype": "uint8", "min": -1.9819982528686522, "scale": 0.019431355420280905, "original_dtype": "float32"}}, {"name": "StatefulPartitionedCall/mobilenet_1.00_64/conv_dw_8/depthwise_bn_offset", "shape": [512], "dtype": "float32", "quantization": {"dtype": "uint8", "min": -1.1763700541327982, "scale": 0.01278663102318259, "original_dtype": "float32"}}, {"name": "StatefulPartitionedCall/mobilenet_1.00_64/conv_pw_8/Conv2D_weights", "shape": [1, 1, 512, 512], "dtype": "float32", "quantization": {"dtype": "uint8", "min": -0.31412786876454074, "scale": 0.002379756581549551, "original_dtype": "float32"}}, {"name": "StatefulPartitionedCall/mobilenet_1.00_64/conv_pw_8/Conv2D_bn_offset", "shape": [512], "dtype": "float32", "quantization": {"dtype": "uint8", "min": -1.7996739088320266, "scale": 0.018553339266309553, "original_dtype": "float32"}}, {"name": "StatefulPartitionedCall/mobilenet_1.00_64/conv_dw_9/depthwise_weights", "shape": [3, 3, 512, 1], "dtype": "float32", "quantization": {"dtype": "uint8", "min": -1.7064318928064086, "scale": 0.017592081369138233, "original_dtype": "float32"}}, {"name": "StatefulPartitionedCall/mobilenet_1.00_64/conv_dw_9/depthwise_bn_offset", "shape": [512], "dtype": "float32", "quantization": {"dtype": "uint8", "min": -1.4320006534165026, "scale": 0.013902918965208764, "original_dtype": "float32"}}, {"name": "StatefulPartitionedCall/mobilenet_1.00_64/conv_pw_9/Conv2D_weights", "shape": [1, 1, 512, 512], "dtype": "float32", "quantization": {"dtype": "uint8", "min": -0.2860617988249835, "scale": 0.002288494390599868, "original_dtype": "float32"}}, {"name": "StatefulPartitionedCall/mobilenet_1.00_64/conv_pw_9/Conv2D_bn_offset", "shape": [512], "dtype": "float32", "quantization": {"dtype": "uint8", "min": -1.8577638513901653, "scale": 0.019351706785314223, "original_dtype": "float32"}}, {"name": "StatefulPartitionedCall/mobilenet_1.00_64/conv_dw_10/depthwise_weights", "shape": [3, 3, 512, 1], "dtype": "float32", "quantization": {"dtype": "uint8", "min": -1.788306901034187, "scale": 0.016870819821077236, "original_dtype": "float32"}}, {"name": "StatefulPartitionedCall/mobilenet_1.00_64/conv_dw_10/depthwise_bn_offset", "shape": [512], "dtype": "float32", "quantization": {"dtype": "uint8", "min": -1.31659074530882, "scale": 0.011252912353066837, "original_dtype": "float32"}}, {"name": "StatefulPartitionedCall/mobilenet_1.00_64/conv_pw_10/Conv2D_weights", "shape": [1, 1, 512, 512], "dtype": "float32", "quantization": {"dtype": "uint8", "min": -0.26684850314084224, "scale": 0.002590762166415944, "original_dtype": "float32"}}, {"name": "StatefulPartitionedCall/mobilenet_1.00_64/conv_pw_10/Conv2D_bn_offset", "shape": [512], "dtype": "float32", "quantization": {"dtype": "uint8", "min": -1.5496146795796413, "scale": 0.013713404244067622, "original_dtype": "float32"}}, {"name": "StatefulPartitionedCall/mobilenet_1.00_64/conv_dw_11/depthwise_weights", "shape": [3, 3, 512, 1], "dtype": "float32", "quantization": {"dtype": "uint8", "min": -2.152045642628389, "scale": 0.02049567278693704, "original_dtype": "float32"}}, {"name": "StatefulPartitionedCall/mobilenet_1.00_64/conv_dw_11/depthwise_bn_offset", "shape": [512], "dtype": "float32", "quantization": {"dtype": "uint8", "min": -0.8993838534635656, "scale": 0.01070695063647102, "original_dtype": "float32"}}, {"name": "StatefulPartitionedCall/mobilenet_1.00_64/conv_pw_11/Conv2D_weights", "shape": [1, 1, 512, 512], "dtype": "float32", "quantization": {"dtype": "uint8", "min": -0.24700037024769128, "scale": 0.0022660584426393697, "original_dtype": "float32"}}, {"name": "StatefulPartitionedCall/mobilenet_1.00_64/conv_pw_11/Conv2D_bn_offset", "shape": [512], "dtype": "float32", "quantization": {"dtype": "uint8", "min": -1.3793680583729464, "scale": 0.016421048313963647, "original_dtype": "float32"}}, {"name": "StatefulPartitionedCall/mobilenet_1.00_64/conv_dw_12/depthwise_weights", "shape": [3, 3, 512, 1], "dtype": "float32", "quantization": {"dtype": "uint8", "min": -1.512486113286486, "scale": 0.022574419601290835, "original_dtype": "float32"}}, {"name": "StatefulPartitionedCall/mobilenet_1.00_64/conv_dw_12/depthwise_bn_offset", "shape": [512], "dtype": "float32", "quantization": {"dtype": "uint8", "min": -1.0037927440568513, "scale": 0.01893948573692172, "original_dtype": "float32"}}]}]}